JOB ID: 23963647
EPOCHS: 10
FREEZE_PRETRAINED: True
----------------------------------------------------------------
Device: CUDA
Device Name: Tesla V100-FHHL-16GB
Memory Usage:
  - Allocated: 0.1 GB
  - Cached: 0.2 GB
================================================================
Summary of Neural Network:
----------------------------------------------------------------
        Layer (type)               Output Shape         Param #
================================================================
            Conv2d-1         [-1, 16, 258, 246]             448
              ReLU-2         [-1, 16, 258, 246]               0
         MaxPool2d-3         [-1, 16, 129, 123]               0
            Conv2d-4         [-1, 32, 131, 125]           4,640
              ReLU-5         [-1, 32, 131, 125]               0
         MaxPool2d-6           [-1, 32, 65, 62]               0
            Conv2d-7           [-1, 64, 67, 64]          18,496
              ReLU-8           [-1, 64, 67, 64]               0
         MaxPool2d-9           [-1, 64, 33, 32]               0
           Conv2d-10          [-1, 128, 35, 34]          73,856
             ReLU-11          [-1, 128, 35, 34]               0
        MaxPool2d-12          [-1, 128, 17, 17]               0
          Flatten-13                [-1, 36992]               0
           Linear-14                 [-1, 1000]      36,993,000
             ReLU-15                 [-1, 1000]               0
           Linear-16                  [-1, 500]         500,500
             ReLU-17                  [-1, 500]               0
           Linear-18                  [-1, 100]          50,100
             ReLU-19                  [-1, 100]               0
           Linear-20                   [-1, 86]           8,686
================================================================
Total params: 37,649,726
Trainable params: 37,649,726
Non-trainable params: 0
----------------------------------------------------------------
Input size (MB): 0.71
Forward/backward pass size (MB): 34.03
Params size (MB): 143.62
Estimated Total Size (MB): 178.37
----------------------------------------------------------------
…
